Model Exp2019-01-29_23-30-18 has been started to be evaluated.
_________________________________________________________________
Layer (type)                 Output Shape              Param #   
=================================================================
input_1 (InputLayer)         (None, 224, 224, 3)       0         
_________________________________________________________________
block1_conv1 (Conv2D)        (None, 224, 224, 64)      1792      
_________________________________________________________________
block1_conv2 (Conv2D)        (None, 224, 224, 64)      36928     
_________________________________________________________________
block1_pool (MaxPooling2D)   (None, 112, 112, 64)      0         
_________________________________________________________________
block2_conv1 (Conv2D)        (None, 112, 112, 128)     73856     
_________________________________________________________________
block2_conv2 (Conv2D)        (None, 112, 112, 128)     147584    
_________________________________________________________________
block2_pool (MaxPooling2D)   (None, 56, 56, 128)       0         
_________________________________________________________________
block3_conv1 (Conv2D)        (None, 56, 56, 256)       295168    
_________________________________________________________________
block3_conv2 (Conv2D)        (None, 56, 56, 256)       590080    
_________________________________________________________________
block3_conv3 (Conv2D)        (None, 56, 56, 256)       590080    
_________________________________________________________________
block3_pool (MaxPooling2D)   (None, 28, 28, 256)       0         
_________________________________________________________________
block4_conv1 (Conv2D)        (None, 28, 28, 512)       1180160   
_________________________________________________________________
block4_conv2 (Conv2D)        (None, 28, 28, 512)       2359808   
_________________________________________________________________
block4_conv3 (Conv2D)        (None, 28, 28, 512)       2359808   
_________________________________________________________________
block4_pool (MaxPooling2D)   (None, 14, 14, 512)       0         
_________________________________________________________________
block5_conv1 (Conv2D)        (None, 14, 14, 512)       2359808   
_________________________________________________________________
block5_conv2 (Conv2D)        (None, 14, 14, 512)       2359808   
_________________________________________________________________
block5_conv3 (Conv2D)        (None, 14, 14, 512)       2359808   
_________________________________________________________________
block5_pool (MaxPooling2D)   (None, 7, 7, 512)         0         
_________________________________________________________________
flatten (Flatten)            (None, 25088)             0         
_________________________________________________________________
fc1 (Dense)                  (None, 4096)              102764544 
_________________________________________________________________
fc2 (Dense)                  (None, 4096)              16781312  
_________________________________________________________________
dropout3_025 (Dropout)       (None, 4096)              0         
_________________________________________________________________
fc1024 (Dense)               (None, 1024)              4195328   
_________________________________________________________________
dropout_025 (Dropout)        (None, 1024)              0         
_________________________________________________________________
fc3 (Dense)                  (None, 3)                 3075      
=================================================================
Total params: 138,458,947
Trainable params: 4,198,403
Non-trainable params: 134,260,544
_________________________________________________________________

_________________________________________________________________
Layer (type)                 Output Shape              Param #   
=================================================================
tdCNN (TimeDistributed)      (1, 1, 3)                 138458947 
_________________________________________________________________
lstm_1 (LSTM)                (1, 10)                   560       
_________________________________________________________________
dense_1 (Dense)              (1, 3)                    33        
=================================================================
Total params: 138,459,540
Trainable params: 4,198,996
Non-trainable params: 134,260,544
_________________________________________________________________

######## CONF_Begins_Here ##########
confFile = 'Stateful_FC_RNN_Configuration.py'
RECORD = True # False # 

output_begin = 3
num_outputs = 3

timesteps = 1 # TimeseriesGenerator Handles overlapping
…
