…
2019-01-16 03:07:03.288268: I tensorflow/core/common_runtime/gpu/gpu_device.cc:1041] Created TensorFlow device (/job:
localhost/replica:0/task:0/device:GPU:0 with 9782 MB memory) -> physical GPU (device: 0, name: GeForce GTX TITAN X, p
ci bus id: 0000:01:00.0, compute capability: 5.2)
Model VGG16_seqLen1_lstm26_output3_inEpochs1_outEpochs1_AdamOpt(lr=0.000100)_2019-01-16_03-07-03 has been started to
be evaluated.
_________________________________________________________________
Layer (type)                 Output Shape              Param #
=================================================================
input_1 (InputLayer)         (None, 224, 224, 3)       0
_________________________________________________________________
block1_conv1 (Conv2D)        (None, 224, 224, 64)      1792
_________________________________________________________________
block1_conv2 (Conv2D)        (None, 224, 224, 64)      36928
_________________________________________________________________
block1_pool (MaxPooling2D)   (None, 112, 112, 64)      0
_________________________________________________________________
block2_conv1 (Conv2D)        (None, 112, 112, 128)     73856
_________________________________________________________________
block2_conv2 (Conv2D)        (None, 112, 112, 128)     147584
_________________________________________________________________
block2_pool (MaxPooling2D)   (None, 56, 56, 128)       0
_________________________________________________________________
block3_conv1 (Conv2D)        (None, 56, 56, 256)       295168
_________________________________________________________________
block3_conv2 (Conv2D)        (None, 56, 56, 256)       590080
_________________________________________________________________
block3_conv3 (Conv2D)        (None, 56, 56, 256)       590080
_________________________________________________________________
block3_pool (MaxPooling2D)   (None, 28, 28, 256)       0
_________________________________________________________________
block4_conv1 (Conv2D)        (None, 28, 28, 512)       1180160
_________________________________________________________________
block4_conv2 (Conv2D)        (None, 28, 28, 512)       2359808
_________________________________________________________________
block4_conv3 (Conv2D)        (None, 28, 28, 512)       2359808
_________________________________________________________________
block4_pool (MaxPooling2D)   (None, 14, 14, 512)       0
_________________________________________________________________
block5_conv1 (Conv2D)        (None, 14, 14, 512)       2359808
_________________________________________________________________
block5_conv2 (Conv2D)        (None, 14, 14, 512)       2359808
_________________________________________________________________
block5_conv3 (Conv2D)        (None, 14, 14, 512)       2359808
_________________________________________________________________
block5_pool (MaxPooling2D)   (None, 7, 7, 512)         0
=================================================================
Total params: 14,714,688
Trainable params: 0
Non-trainable params: 14,714,688
_________________________________________________________________

_________________________________________________________________
Layer (type)                 Output Shape              Param #
=================================================================
tdVGG16 (TimeDistributed)    (None, 1, 7, 7, 512)      14714688
_________________________________________________________________
time_distributed_1 (TimeDist (None, 1, 25088)          0
_________________________________________________________________
lstm_1 (LSTM)                (None, 26)                2611960
_________________________________________________________________
dense_1 (Dense)              (None, 3)                 81
=================================================================
Total params: 17,326,729
Trainable params: 2,612,041
Non-trainable params: 14,714,688
_________________________________________________________________

Training model VGG16_seqLen1_lstm26_output3_inEpochs1_outEpochs1_AdamOpt(lr=0.000100)_2019-01-16_03-07-03
All frames and annotations from 4 datasets have been read by 2019-01-16 03:07:05.731009
…
2019-01-16 03:10:02.846700: I tensorflow/core/common_runtime/gpu/gpu_device.cc:1041] Created TensorFlow device (/job:
localhost/replica:0/task:0/device:GPU:0 with 9782 MB memory) -> physical GPU (device: 0, name: GeForce GTX TITAN X, p
ci bus id: 0000:01:00.0, compute capability: 5.2)
Model VGG16_seqLen16_lstm256_output3_inEpochs1_outEpochs1_AdamOpt(lr=0.000100)_2019-01-16_03-10-03 has been started t
o be evaluated.
_________________________________________________________________
Layer (type)                 Output Shape              Param #
=================================================================
input_1 (InputLayer)         (None, 224, 224, 3)       0
_________________________________________________________________
block1_conv1 (Conv2D)        (None, 224, 224, 64)      1792
_________________________________________________________________
block1_conv2 (Conv2D)        (None, 224, 224, 64)      36928
_________________________________________________________________
block1_pool (MaxPooling2D)   (None, 112, 112, 64)      0
_________________________________________________________________
block2_conv1 (Conv2D)        (None, 112, 112, 128)     73856
_________________________________________________________________
block2_conv2 (Conv2D)        (None, 112, 112, 128)     147584
_________________________________________________________________
block2_pool (MaxPooling2D)   (None, 56, 56, 128)       0
_________________________________________________________________
block3_conv1 (Conv2D)        (None, 56, 56, 256)       295168
_________________________________________________________________
block3_conv2 (Conv2D)        (None, 56, 56, 256)       590080
_________________________________________________________________
block3_conv3 (Conv2D)        (None, 56, 56, 256)       590080
_________________________________________________________________
block3_pool (MaxPooling2D)   (None, 28, 28, 256)       0
_________________________________________________________________
block4_conv1 (Conv2D)        (None, 28, 28, 512)       1180160
_________________________________________________________________
block4_conv2 (Conv2D)        (None, 28, 28, 512)       2359808
_________________________________________________________________
block4_conv3 (Conv2D)        (None, 28, 28, 512)       2359808
_________________________________________________________________
block4_pool (MaxPooling2D)   (None, 14, 14, 512)       0
_________________________________________________________________
block5_conv1 (Conv2D)        (None, 14, 14, 512)       2359808
_________________________________________________________________
block5_conv2 (Conv2D)        (None, 14, 14, 512)       2359808
_________________________________________________________________
block5_conv3 (Conv2D)        (None, 14, 14, 512)       2359808
_________________________________________________________________
block5_pool (MaxPooling2D)   (None, 7, 7, 512)         0
=================================================================
Total params: 14,714,688
Trainable params: 0
Non-trainable params: 14,714,688
_________________________________________________________________

_________________________________________________________________
Layer (type)                 Output Shape              Param #
=================================================================
tdVGG16 (TimeDistributed)    (None, 16, 7, 7, 512)     14714688
_________________________________________________________________
time_distributed_1 (TimeDist (None, 16, 25088)         0
_________________________________________________________________
lstm_1 (LSTM)                (None, 256)               25953280
_________________________________________________________________
dense_1 (Dense)              (None, 3)                 771
=================================================================
Total params: 40,668,739
Trainable params: 25,954,051
Non-trainable params: 14,714,688
_________________________________________________________________

Training model VGG16_seqLen16_lstm256_output3_inEpochs1_outEpochs1_AdamOpt(lr=0.000100)_2019-01-16_03-10-03
All frames and annotations from 4 datasets have been read by 2019-01-16 03:10:05.195311
…
2019-01-19 18:23:39.019013: I tensorflow/core/common_runtime/gpu/gpu_device.cc:930] 0:   N
2019-01-19 18:23:39.019142: I tensorflow/core/common_runtime/gpu/gpu_device.cc:1041] Created TensorFlow device (/job:
localhost/replica:0/task:0/device:GPU:0 with 9536 MB memory) -> physical GPU (device: 0, name: GeForce GTX TITAN X, p
ci bus id: 0000:01:00.0, compute capability: 5.2)
Model 19-01-19_18-23-39 has been started to be evaluated.
_________________________________________________________________
Layer (type)                 Output Shape              Param #
=================================================================
input_1 (InputLayer)         (None, 224, 224, 3)       0
_________________________________________________________________
block1_conv1 (Conv2D)        (None, 224, 224, 64)      1792
_________________________________________________________________
block1_conv2 (Conv2D)        (None, 224, 224, 64)      36928
_________________________________________________________________
block1_pool (MaxPooling2D)   (None, 112, 112, 64)      0
_________________________________________________________________
block2_conv1 (Conv2D)        (None, 112, 112, 128)     73856
_________________________________________________________________
block2_conv2 (Conv2D)        (None, 112, 112, 128)     147584
_________________________________________________________________
block2_pool (MaxPooling2D)   (None, 56, 56, 128)       0
_________________________________________________________________
block3_conv1 (Conv2D)        (None, 56, 56, 256)       295168
_________________________________________________________________
block3_conv2 (Conv2D)        (None, 56, 56, 256)       590080
_________________________________________________________________
block3_conv3 (Conv2D)        (None, 56, 56, 256)       590080
_________________________________________________________________
block3_pool (MaxPooling2D)   (None, 28, 28, 256)       0
_________________________________________________________________
block4_conv1 (Conv2D)        (None, 28, 28, 512)       1180160
_________________________________________________________________
block4_conv2 (Conv2D)        (None, 28, 28, 512)       2359808
_________________________________________________________________
block4_conv3 (Conv2D)        (None, 28, 28, 512)       2359808
_________________________________________________________________
block4_pool (MaxPooling2D)   (None, 14, 14, 512)       0
_________________________________________________________________
block5_conv1 (Conv2D)        (None, 14, 14, 512)       2359808
_________________________________________________________________
block5_conv2 (Conv2D)        (None, 14, 14, 512)       2359808
_________________________________________________________________
block5_conv3 (Conv2D)        (None, 14, 14, 512)       2359808
_________________________________________________________________
block5_pool (MaxPooling2D)   (None, 7, 7, 512)         0
=================================================================
Total params: 14,714,688
Trainable params: 0
Non-trainable params: 14,714,688
_________________________________________________________________

_________________________________________________________________
Layer (type)                 Output Shape              Param #
=================================================================
tdVGG16 (TimeDistributed)    (None, 1, 7, 7, 512)      14714688
_________________________________________________________________
time_distributed_1 (TimeDist (None, 1, 25088)          0
_________________________________________________________________
lstm_1 (LSTM)                (None, 2)                 200728
_________________________________________________________________
dense_1 (Dense)              (None, 3)                 9
=================================================================
Total params: 14,915,425
Trainable params: 200,737
Non-trainable params: 14,714,688
_________________________________________________________________

Training model VGG16_seqLen1_lstm2_output3_inEpochs1_outEpochs1_AdamOpt(lr=0.000100)_2019-01-19_18-23-39
All frames and annotations from 1 datasets have been read by 2019-01-19 18:23:40.271224
…
2019-01-20 04:23:27.497521: I tensorflow/core/common_runtime/gpu/gpu_device.cc:930] 0:   N
2019-01-20 04:23:27.497695: I tensorflow/core/common_runtime/gpu/gpu_device.cc:1041] Created TensorFlow device (/job:
localhost/replica:0/task:0/device:GPU:0 with 9536 MB memory) -> physical GPU (device: 0, name: GeForce GTX TITAN X, p
ci bus id: 0000:01:00.0, compute capability: 5.2)
Model Exp2019-01-20_04-23-27 has been started to be evaluated.
_________________________________________________________________
Layer (type)                 Output Shape              Param #
=================================================================
input_1 (InputLayer)         (None, 224, 224, 3)       0
_________________________________________________________________
block1_conv1 (Conv2D)        (None, 224, 224, 64)      1792
_________________________________________________________________
block1_conv2 (Conv2D)        (None, 224, 224, 64)      36928
_________________________________________________________________
block1_pool (MaxPooling2D)   (None, 112, 112, 64)      0
_________________________________________________________________
block2_conv1 (Conv2D)        (None, 112, 112, 128)     73856
_________________________________________________________________
block2_conv2 (Conv2D)        (None, 112, 112, 128)     147584
_________________________________________________________________
block2_pool (MaxPooling2D)   (None, 56, 56, 128)       0
_________________________________________________________________
block3_conv1 (Conv2D)        (None, 56, 56, 256)       295168
_________________________________________________________________
block3_conv2 (Conv2D)        (None, 56, 56, 256)       590080
_________________________________________________________________
block3_conv3 (Conv2D)        (None, 56, 56, 256)       590080
_________________________________________________________________
block3_pool (MaxPooling2D)   (None, 28, 28, 256)       0
_________________________________________________________________
block4_conv1 (Conv2D)        (None, 28, 28, 512)       1180160
_________________________________________________________________
block4_conv2 (Conv2D)        (None, 28, 28, 512)       2359808
_________________________________________________________________
block4_conv3 (Conv2D)        (None, 28, 28, 512)       2359808
_________________________________________________________________
block4_pool (MaxPooling2D)   (None, 14, 14, 512)       0
_________________________________________________________________
block5_conv1 (Conv2D)        (None, 14, 14, 512)       2359808
_________________________________________________________________
block5_conv2 (Conv2D)        (None, 14, 14, 512)       2359808
_________________________________________________________________
block5_conv3 (Conv2D)        (None, 14, 14, 512)       2359808
_________________________________________________________________
block5_pool (MaxPooling2D)   (None, 7, 7, 512)         0
=================================================================
Total params: 14,714,688
Trainable params: 0
Non-trainable params: 14,714,688
_________________________________________________________________

_________________________________________________________________
Layer (type)                 Output Shape              Param #
=================================================================
tdVGG16 (TimeDistributed)    (None, 16, 7, 7, 512)     14714688
_________________________________________________________________
time_distributed_1 (TimeDist (None, 16, 25088)         0
_________________________________________________________________
time_distributed_2 (TimeDist (None, 16, 25088)         0
_________________________________________________________________
fc1024 (TimeDistributed)     (None, 16, 4096)          102764544
_________________________________________________________________
time_distributed_3 (TimeDist (None, 16, 4096)          0
_________________________________________________________________
fc104 (TimeDistributed)      (None, 16, 4096)          16781312
_________________________________________________________________
time_distributed_4 (TimeDist (None, 16, 4096)          0
_________________________________________________________________
fc10 (TimeDistributed)       (None, 16, 1024)          4195328
_________________________________________________________________
time_distributed_5 (TimeDist (None, 16, 1024)          0
_________________________________________________________________
lstm_1 (LSTM)                (None, 10)                41400
_________________________________________________________________
dense_4 (Dense)              (None, 3)                 33
=================================================================
Total params: 138,497,305
Trainable params: 123,782,617
Non-trainable params: 14,714,688
_________________________________________________________________

Training model VGG16_seqLen16_lstm10_output3_inEpochs1_outEpochs20_AdamOpt_lr-0.000100__2019-01-20_04-23-27
All frames and annotations from 20 datasets have been read by 2019-01-20 04:23:33.179827
…
2019-01-20 20:04:05.648148: I tensorflow/core/common_runtime/gpu/gpu_device.cc:930] 0:   N
2019-01-20 20:04:05.648279: I tensorflow/core/common_runtime/gpu/gpu_device.cc:1041] Created TensorFlow device (/job:
localhost/replica:0/task:0/device:GPU:0 with 9537 MB memory) -> physical GPU (device: 0, name: GeForce GTX TITAN X, p
ci bus id: 0000:01:00.0, compute capability: 5.2)
Model Exp2019-01-20_20-04-06 has been started to be evaluated.
_________________________________________________________________
Layer (type)                 Output Shape              Param #
=================================================================
input_1 (InputLayer)         (None, 224, 224, 3)       0
_________________________________________________________________
block1_conv1 (Conv2D)        (None, 224, 224, 64)      1792
_________________________________________________________________
block1_conv2 (Conv2D)        (None, 224, 224, 64)      36928
_________________________________________________________________
block1_pool (MaxPooling2D)   (None, 112, 112, 64)      0
_________________________________________________________________
block2_conv1 (Conv2D)        (None, 112, 112, 128)     73856
_________________________________________________________________
block2_conv2 (Conv2D)        (None, 112, 112, 128)     147584
_________________________________________________________________
block2_pool (MaxPooling2D)   (None, 56, 56, 128)       0
_________________________________________________________________
block3_conv1 (Conv2D)        (None, 56, 56, 256)       295168
_________________________________________________________________
block3_conv2 (Conv2D)        (None, 56, 56, 256)       590080
_________________________________________________________________
block3_conv3 (Conv2D)        (None, 56, 56, 256)       590080
_________________________________________________________________
block3_pool (MaxPooling2D)   (None, 28, 28, 256)       0
_________________________________________________________________
block4_conv1 (Conv2D)        (None, 28, 28, 512)       1180160
_________________________________________________________________
block4_conv2 (Conv2D)        (None, 28, 28, 512)       2359808
_________________________________________________________________
block4_conv3 (Conv2D)        (None, 28, 28, 512)       2359808
_________________________________________________________________
block4_pool (MaxPooling2D)   (None, 14, 14, 512)       0
_________________________________________________________________
block5_conv1 (Conv2D)        (None, 14, 14, 512)       2359808
_________________________________________________________________
block5_conv2 (Conv2D)        (None, 14, 14, 512)       2359808
_________________________________________________________________
block5_conv3 (Conv2D)        (None, 14, 14, 512)       2359808
_________________________________________________________________
block5_pool (MaxPooling2D)   (None, 7, 7, 512)         0
=================================================================
Total params: 14,714,688
Trainable params: 0
Non-trainable params: 14,714,688
_________________________________________________________________

_________________________________________________________________
Layer (type)                 Output Shape              Param #
=================================================================
tdVGG16 (TimeDistributed)    (None, 16, 7, 7, 512)     14714688
_________________________________________________________________
time_distributed_1 (TimeDist (None, 16, 25088)         0
_________________________________________________________________
time_distributed_2 (TimeDist (None, 16, 25088)         0
_________________________________________________________________
fc1024 (TimeDistributed)     (None, 16, 4096)          102764544
_________________________________________________________________
time_distributed_3 (TimeDist (None, 16, 4096)          0
_________________________________________________________________
fc104 (TimeDistributed)      (None, 16, 4096)          16781312
_________________________________________________________________
time_distributed_4 (TimeDist (None, 16, 4096)          0
_________________________________________________________________
fc10 (TimeDistributed)       (None, 16, 1024)          4195328
_________________________________________________________________
time_distributed_5 (TimeDist (None, 16, 1024)          0
_________________________________________________________________
lstm_1 (LSTM)                (None, 32)                135296
_________________________________________________________________
dense_4 (Dense)              (None, 3)                 99
=================================================================
Total params: 138,591,267
Trainable params: 123,876,579
Non-trainable params: 14,714,688
_________________________________________________________________

Training model VGG16_seqLen16_lstm32_output3_inEpochs1_outEpochs5_AdamOpt_lr-0.000010__2019-01-20_20-04-06
All frames and annotations from 20 datasets have been read by 2019-01-20 20:04:11.364694
…
