…
2019-01-26 13:37:42.297529: I tensorflow/core/common_runtime/gpu/gpu_device.cc:930] 0:   N
2019-01-26 13:37:42.297666: I tensorflow/core/common_runtime/gpu/gpu_device.cc:1041] Created TensorFlow devi
ce (/job:localhost/replica:0/task:0/device:GPU:0 with 10470 MB memory) -> physical GPU (device: 0, name: GeF
orce GTX TITAN X, pci bus id: 0000:01:00.0, compute capability: 5.2)
Model Exp2019-01-26_13-37-43 has been started to be evaluated.
_________________________________________________________________
Layer (type)                 Output Shape              Param #
=================================================================
input_1 (InputLayer)         (None, 224, 224, 3)       0
_________________________________________________________________
block1_conv1 (Conv2D)        (None, 224, 224, 64)      1792
_________________________________________________________________
block1_conv2 (Conv2D)        (None, 224, 224, 64)      36928
_________________________________________________________________
block1_pool (MaxPooling2D)   (None, 112, 112, 64)      0
_________________________________________________________________
block2_conv1 (Conv2D)        (None, 112, 112, 128)     73856
_________________________________________________________________
block2_conv2 (Conv2D)        (None, 112, 112, 128)     147584
_________________________________________________________________
block2_pool (MaxPooling2D)   (None, 56, 56, 128)       0
_________________________________________________________________
block3_conv1 (Conv2D)        (None, 56, 56, 256)       295168
_________________________________________________________________
block3_conv2 (Conv2D)        (None, 56, 56, 256)       590080
_________________________________________________________________
block3_conv3 (Conv2D)        (None, 56, 56, 256)       590080
_________________________________________________________________
block3_pool (MaxPooling2D)   (None, 28, 28, 256)       0
_________________________________________________________________
block4_conv1 (Conv2D)        (None, 28, 28, 512)       1180160
_________________________________________________________________
block4_conv2 (Conv2D)        (None, 28, 28, 512)       2359808
_________________________________________________________________
block4_conv3 (Conv2D)        (None, 28, 28, 512)       2359808
_________________________________________________________________
block4_pool (MaxPooling2D)   (None, 14, 14, 512)       0
_________________________________________________________________
block5_conv1 (Conv2D)        (None, 14, 14, 512)       2359808
_________________________________________________________________
block5_conv2 (Conv2D)        (None, 14, 14, 512)       2359808
_________________________________________________________________
block5_conv3 (Conv2D)        (None, 14, 14, 512)       2359808
_________________________________________________________________
block5_pool (MaxPooling2D)   (None, 7, 7, 512)         0
_________________________________________________________________
flatten (Flatten)            (None, 25088)             0
_________________________________________________________________
fc1 (Dense)                  (None, 4096)              102764544
_________________________________________________________________
fc2 (Dense)                  (None, 4096)              16781312
=================================================================
Total params: 134,260,544
Trainable params: 0
Non-trainable params: 134,260,544
_________________________________________________________________

_________________________________________________________________
Layer (type)                 Output Shape              Param #
=================================================================
tdCNN (TimeDistributed)      (1, 1, 4096)              134260544
_________________________________________________________________
dropout025_conv (TimeDistrib (1, 1, 4096)              0
_________________________________________________________________
fc1024 (TimeDistributed)     (1, 1, 1024)              4195328
_________________________________________________________________
dropout025 (TimeDistributed) (1, 1, 1024)              0
_________________________________________________________________
fc3 (TimeDistributed)        (1, 1, 3)                 3075
_________________________________________________________________
lstm_1 (LSTM)                (1, 20)                   1920
_________________________________________________________________
dense_3 (Dense)              (1, 3)                    63
=================================================================
Total params: 138,460,930
Trainable params: 4,200,386
Non-trainable params: 134,260,544
_________________________________________________________________

######## CONF_Begins_Here ##########
confFile = 'Stateful_FC_RNN_Configuration.py'
RECORD = True # False #

output_begin = 3
num_outputs = 3

timesteps = 1 # TimeseriesGenerator Handles overlapping
…
2019-01-27 11:51:35.520691: I tensorflow/core/common_runtime/gpu/gpu_device.cc:930] 0:   N
2019-01-27 11:51:35.520869: I tensorflow/core/common_runtime/gpu/gpu_device.cc:1041] Created TensorFlow devi
ce (/job:localhost/replica:0/task:0/device:GPU:0 with 10470 MB memory) -> physical GPU (device: 0, name: GeF
orce GTX TITAN X, pci bus id: 0000:01:00.0, compute capability: 5.2)
Exp2019-01-26_13-37-43.h5 has been saved.
_________________________________________________________________
Layer (type)                 Output Shape              Param #
=================================================================
tdCNN (TimeDistributed)      (1, 1, 4096)              134260544
_________________________________________________________________
dropout025_conv (TimeDistrib (1, 1, 4096)              0
_________________________________________________________________
fc1024 (TimeDistributed)     (1, 1, 1024)              4195328
_________________________________________________________________
dropout025 (TimeDistributed) (1, 1, 1024)              0
_________________________________________________________________
fc3 (TimeDistributed)        (1, 1, 3)                 3075
_________________________________________________________________
lstm_1 (LSTM)                (1, 20)                   1920
_________________________________________________________________
dense_3 (Dense)              (1, 3)                    63
=================================================================
Total params: 138,460,930
Trainable params: 4,200,386
Non-trainable params: 134,260,544
_________________________________________________________________

######## CONF_Begins_Here ##########
confFile = 'Stateful_FC_RNN_Configuration.py'
RECORD = True # False #

output_begin = 3
num_outputs = 3

timesteps = 1 # TimeseriesGenerator Handles overlapping
…
2019-01-27 13:25:49.317796: I tensorflow/core/common_runtime/gpu/gpu_device.cc:930] 0:   N
2019-01-27 13:25:49.317934: I tensorflow/core/common_runtime/gpu/gpu_device.cc:1041] Created TensorFlow devi
ce (/job:localhost/replica:0/task:0/device:GPU:0 with 10470 MB memory) -> physical GPU (device: 0, name: GeF
orce GTX TITAN X, pci bus id: 0000:01:00.0, compute capability: 5.2)
Model Exp2019-01-27_13-25-50 has been started to be evaluated.
_________________________________________________________________
Layer (type)                 Output Shape              Param #
=================================================================
input_1 (InputLayer)         (None, 224, 224, 3)       0
_________________________________________________________________
block1_conv1 (Conv2D)        (None, 224, 224, 64)      1792
_________________________________________________________________
block1_conv2 (Conv2D)        (None, 224, 224, 64)      36928
_________________________________________________________________
block1_pool (MaxPooling2D)   (None, 112, 112, 64)      0
_________________________________________________________________
block2_conv1 (Conv2D)        (None, 112, 112, 128)     73856
_________________________________________________________________
block2_conv2 (Conv2D)        (None, 112, 112, 128)     147584
_________________________________________________________________
block2_pool (MaxPooling2D)   (None, 56, 56, 128)       0
_________________________________________________________________
block3_conv1 (Conv2D)        (None, 56, 56, 256)       295168
_________________________________________________________________
block3_conv2 (Conv2D)        (None, 56, 56, 256)       590080
_________________________________________________________________
block3_conv3 (Conv2D)        (None, 56, 56, 256)       590080
_________________________________________________________________
block3_pool (MaxPooling2D)   (None, 28, 28, 256)       0
_________________________________________________________________
block4_conv1 (Conv2D)        (None, 28, 28, 512)       1180160
_________________________________________________________________
block4_conv2 (Conv2D)        (None, 28, 28, 512)       2359808
_________________________________________________________________
block4_conv3 (Conv2D)        (None, 28, 28, 512)       2359808
_________________________________________________________________
block4_pool (MaxPooling2D)   (None, 14, 14, 512)       0
_________________________________________________________________
block5_conv1 (Conv2D)        (None, 14, 14, 512)       2359808
_________________________________________________________________
block5_conv2 (Conv2D)        (None, 14, 14, 512)       2359808
_________________________________________________________________
block5_conv3 (Conv2D)        (None, 14, 14, 512)       2359808
_________________________________________________________________
block5_pool (MaxPooling2D)   (None, 7, 7, 512)         0
_________________________________________________________________
flatten (Flatten)            (None, 25088)             0
_________________________________________________________________
fc1 (Dense)                  (None, 4096)              102764544
_________________________________________________________________
fc2 (Dense)                  (None, 4096)              16781312
=================================================================
Total params: 134,260,544
Trainable params: 0
Non-trainable params: 134,260,544
_________________________________________________________________

_________________________________________________________________
Layer (type)                 Output Shape              Param #
=================================================================
tdCNN (TimeDistributed)      (1, 1, 4096)              134260544
_________________________________________________________________
fc3 (TimeDistributed)        (1, 1, 3)                 12291
_________________________________________________________________
lstm_1 (LSTM)                (1, 20)                   1920
_________________________________________________________________
dense_2 (Dense)              (1, 3)                    63
=================================================================
Total params: 134,274,818
Trainable params: 14,274
Non-trainable params: 134,260,544
_________________________________________________________________

######## CONF_Begins_Here ##########
confFile = 'Stateful_FC_RNN_Configuration.py'
RECORD = True # False #

output_begin = 3
num_outputs = 3

timesteps = 1 # TimeseriesGenerator Handles overlapping
…
2019-01-27 14:12:08.317607: I tensorflow/core/common_runtime/gpu/gpu_device.cc:930] 0:   N
2019-01-27 14:12:08.317750: I tensorflow/core/common_runtime/gpu/gpu_device.cc:1041] Created TensorFlow devi
ce (/job:localhost/replica:0/task:0/device:GPU:0 with 10471 MB memory) -> physical GPU (device: 0, name: GeF
orce GTX TITAN X, pci bus id: 0000:01:00.0, compute capability: 5.2)
Model Exp2019-01-27_14-12-09 has been started to be evaluated.
_________________________________________________________________
Layer (type)                 Output Shape              Param #
=================================================================
input_1 (InputLayer)         (None, 224, 224, 3)       0
_________________________________________________________________
block1_conv1 (Conv2D)        (None, 224, 224, 64)      1792
_________________________________________________________________
block1_conv2 (Conv2D)        (None, 224, 224, 64)      36928
_________________________________________________________________
block1_pool (MaxPooling2D)   (None, 112, 112, 64)      0
_________________________________________________________________
block2_conv1 (Conv2D)        (None, 112, 112, 128)     73856
_________________________________________________________________
block2_conv2 (Conv2D)        (None, 112, 112, 128)     147584
_________________________________________________________________
block2_pool (MaxPooling2D)   (None, 56, 56, 128)       0
_________________________________________________________________
block3_conv1 (Conv2D)        (None, 56, 56, 256)       295168
_________________________________________________________________
block3_conv2 (Conv2D)        (None, 56, 56, 256)       590080
_________________________________________________________________
block3_conv3 (Conv2D)        (None, 56, 56, 256)       590080
_________________________________________________________________
block3_pool (MaxPooling2D)   (None, 28, 28, 256)       0
_________________________________________________________________
block4_conv1 (Conv2D)        (None, 28, 28, 512)       1180160
_________________________________________________________________
block4_conv2 (Conv2D)        (None, 28, 28, 512)       2359808
_________________________________________________________________
block4_conv3 (Conv2D)        (None, 28, 28, 512)       2359808
_________________________________________________________________
block4_pool (MaxPooling2D)   (None, 14, 14, 512)       0
_________________________________________________________________
block5_conv1 (Conv2D)        (None, 14, 14, 512)       2359808
_________________________________________________________________
block5_conv2 (Conv2D)        (None, 14, 14, 512)       2359808
_________________________________________________________________
block5_conv3 (Conv2D)        (None, 14, 14, 512)       2359808
_________________________________________________________________
block5_pool (MaxPooling2D)   (None, 7, 7, 512)         0
_________________________________________________________________
flatten (Flatten)            (None, 25088)             0
_________________________________________________________________
fc1 (Dense)                  (None, 4096)              102764544
_________________________________________________________________
fc2 (Dense)                  (None, 4096)              16781312
=================================================================
Total params: 134,260,544
Trainable params: 0
Non-trainable params: 134,260,544
_________________________________________________________________

_________________________________________________________________
Layer (type)                 Output Shape              Param #
=================================================================
tdCNN (TimeDistributed)      (1, 1, 4096)              134260544
_________________________________________________________________
lstm_1 (LSTM)                (1, 20)                   329360
_________________________________________________________________
dense_1 (Dense)              (1, 3)                    63
=================================================================
Total params: 134,589,967
Trainable params: 329,423
Non-trainable params: 134,260,544
_________________________________________________________________

######## CONF_Begins_Here ##########
confFile = 'Stateful_FC_RNN_Configuration.py'
RECORD = True # False #

output_begin = 3
num_outputs = 3

timesteps = 1 # TimeseriesGenerator Handles overlapping
…
