Model Exp2019-01-23_00-15-57 has been started to be evaluated.
_________________________________________________________________
Layer (type)                 Output Shape              Param #   
=================================================================
input_1 (InputLayer)         (None, 224, 224, 3)       0         
_________________________________________________________________
block1_conv1 (Conv2D)        (None, 224, 224, 64)      1792      
_________________________________________________________________
block1_conv2 (Conv2D)        (None, 224, 224, 64)      36928     
_________________________________________________________________
block1_pool (MaxPooling2D)   (None, 112, 112, 64)      0         
_________________________________________________________________
block2_conv1 (Conv2D)        (None, 112, 112, 128)     73856     
_________________________________________________________________
block2_conv2 (Conv2D)        (None, 112, 112, 128)     147584    
_________________________________________________________________
block2_pool (MaxPooling2D)   (None, 56, 56, 128)       0         
_________________________________________________________________
block3_conv1 (Conv2D)        (None, 56, 56, 256)       295168    
_________________________________________________________________
block3_conv2 (Conv2D)        (None, 56, 56, 256)       590080    
_________________________________________________________________
block3_conv3 (Conv2D)        (None, 56, 56, 256)       590080    
_________________________________________________________________
block3_pool (MaxPooling2D)   (None, 28, 28, 256)       0         
_________________________________________________________________
block4_conv1 (Conv2D)        (None, 28, 28, 512)       1180160   
_________________________________________________________________
block4_conv2 (Conv2D)        (None, 28, 28, 512)       2359808   
_________________________________________________________________
block4_conv3 (Conv2D)        (None, 28, 28, 512)       2359808   
_________________________________________________________________
block4_pool (MaxPooling2D)   (None, 14, 14, 512)       0         
_________________________________________________________________
block5_conv1 (Conv2D)        (None, 14, 14, 512)       2359808   
_________________________________________________________________
block5_conv2 (Conv2D)        (None, 14, 14, 512)       2359808   
_________________________________________________________________
block5_conv3 (Conv2D)        (None, 14, 14, 512)       2359808   
_________________________________________________________________
block5_pool (MaxPooling2D)   (None, 7, 7, 512)         0         
_________________________________________________________________
flatten (Flatten)            (None, 25088)             0         
_________________________________________________________________
fc1 (Dense)                  (None, 4096)              102764544 
_________________________________________________________________
fc2 (Dense)                  (None, 4096)              16781312  
=================================================================
Total params: 134,260,544
Trainable params: 0
Non-trainable params: 134,260,544
_________________________________________________________________

_________________________________________________________________
Layer (type)                 Output Shape              Param #   
=================================================================
tdVGG16 (TimeDistributed)    (1, 1, 4096)              134260544 
_________________________________________________________________
time_distributed_1 (TimeDist (1, 1, 4096)              0         
_________________________________________________________________
fc10 (TimeDistributed)       (1, 1, 1024)              4195328   
_________________________________________________________________
time_distributed_2 (TimeDist (1, 1, 1024)              0         
_________________________________________________________________
lstm_1 (LSTM)                (1, 320)                  1721600   
_________________________________________________________________
dense_2 (Dense)              (1, 3)                    963       
=================================================================
Total params: 140,178,435
Trainable params: 5,917,891
Non-trainable params: 134,260,544
_________________________________________________________________

1. set (Subject 24, M14) being trained for epoch 1!
2. set (Subject 11, M05) being trained for epoch 1!
3. set (Subject 21, F02) being trained for epoch 1!
4. set (Subject 15, F03) being trained for epoch 1!
…
