Model Exp2019-01-22_21-11-39 has been started to be evaluated.
_________________________________________________________________
Layer (type)                 Output Shape              Param #   
=================================================================
input_1 (InputLayer)         (None, 224, 224, 3)       0         
_________________________________________________________________
block1_conv1 (Conv2D)        (None, 224, 224, 64)      1792      
_________________________________________________________________
block1_conv2 (Conv2D)        (None, 224, 224, 64)      36928     
_________________________________________________________________
block1_pool (MaxPooling2D)   (None, 112, 112, 64)      0         
_________________________________________________________________
block2_conv1 (Conv2D)        (None, 112, 112, 128)     73856     
_________________________________________________________________
block2_conv2 (Conv2D)        (None, 112, 112, 128)     147584    
_________________________________________________________________
block2_pool (MaxPooling2D)   (None, 56, 56, 128)       0         
_________________________________________________________________
block3_conv1 (Conv2D)        (None, 56, 56, 256)       295168    
_________________________________________________________________
block3_conv2 (Conv2D)        (None, 56, 56, 256)       590080    
_________________________________________________________________
block3_conv3 (Conv2D)        (None, 56, 56, 256)       590080    
_________________________________________________________________
block3_pool (MaxPooling2D)   (None, 28, 28, 256)       0         
_________________________________________________________________
block4_conv1 (Conv2D)        (None, 28, 28, 512)       1180160   
_________________________________________________________________
block4_conv2 (Conv2D)        (None, 28, 28, 512)       2359808   
_________________________________________________________________
block4_conv3 (Conv2D)        (None, 28, 28, 512)       2359808   
_________________________________________________________________
block4_pool (MaxPooling2D)   (None, 14, 14, 512)       0         
_________________________________________________________________
block5_conv1 (Conv2D)        (None, 14, 14, 512)       2359808   
_________________________________________________________________
block5_conv2 (Conv2D)        (None, 14, 14, 512)       2359808   
_________________________________________________________________
block5_conv3 (Conv2D)        (None, 14, 14, 512)       2359808   
_________________________________________________________________
block5_pool (MaxPooling2D)   (None, 7, 7, 512)         0         
=================================================================
Total params: 14,714,688
Trainable params: 0
Non-trainable params: 14,714,688
_________________________________________________________________

_________________________________________________________________
Layer (type)                 Output Shape              Param #   
=================================================================
tdVGG16 (TimeDistributed)    (10, 1, 7, 7, 512)        14714688  
_________________________________________________________________
time_distributed_1 (TimeDist (10, 1, 25088)            0         
_________________________________________________________________
time_distributed_2 (TimeDist (10, 1, 25088)            0         
_________________________________________________________________
lstm_1 (LSTM)                (10, 320)                 32523520  
_________________________________________________________________
dense_1 (Dense)              (10, 3)                   963       
=================================================================
Total params: 47,239,171
Trainable params: 32,524,483
Non-trainable params: 14,714,688
_________________________________________________________________

1. set (Subject 9, M03) being trained for epoch 1!
Epoch 1 completed!
1. set (Subject 9, M03) being trained for epoch 2!
Epoch 2 completed!
1. set (Subject 9, M03) being trained for epoch 3!
…
1. set (Subject 9, M03) being trained for epoch 10!
Epoch 10 completed!
Exp2019-01-22_21-11-39.h5 has been saved.
The subjects are trained: [(9, 'M03')]
Evaluating model VGG16_seqLen1_stateful_lstm320_output3_inEpochs1_outEpochs10_AdamOpt_lr-0.000100_2019-01-22_21-11-39
The subjects will be tested: [(9, 'M03')]
For the Subject 9 (M03):
Exp2019-01-22_21-11-39.h5 has been saved.
Exp2019-01-22_21-11-39.h5 has been saved.
_________________________________________________________________
Layer (type)                 Output Shape              Param #   
=================================================================
tdVGG16 (TimeDistributed)    (10, 1, 7, 7, 512)        14714688  
_________________________________________________________________
time_distributed_1 (TimeDist (10, 1, 25088)            0         
_________________________________________________________________
time_distributed_2 (TimeDist (10, 1, 25088)            0         
_________________________________________________________________
lstm_1 (LSTM)                (10, 320)                 32523520  
_________________________________________________________________
dense_1 (Dense)              (10, 3)                   963       
=================================================================
Total params: 47,239,171
Trainable params: 32,524,483
Non-trainable params: 14,714,688
_________________________________________________________________

The subjects are trained: [(9, 'M03')]
Evaluating model Exp2019-01-22_21-11-39_and_2019-01-22_21-42-41
The subjects will be tested: [(9, 'M03')]
For the Subject 9 (M03):
Exp2019-01-22_21-11-39.h5 has been saved.
_________________________________________________________________
Layer (type)                 Output Shape              Param #   
=================================================================
tdVGG16 (TimeDistributed)    (10, 1, 7, 7, 512)        14714688  
_________________________________________________________________
time_distributed_1 (TimeDist (10, 1, 25088)            0         
_________________________________________________________________
time_distributed_2 (TimeDist (10, 1, 25088)            0         
_________________________________________________________________
lstm_1 (LSTM)                (10, 320)                 32523520  
_________________________________________________________________
dense_1 (Dense)              (10, 3)                   963       
=================================================================
Total params: 47,239,171
Trainable params: 32,524,483
Non-trainable params: 14,714,688
_________________________________________________________________

The subjects are trained: [(9, 'M03')]
Evaluating model Exp2019-01-22_21-11-39_and_2019-01-22_21-51-39
The subjects will be tested: [(9, 'M03')]
For the Subject 9 (M03):
Exp2019-01-22_21-11-39.h5 has been saved.
_________________________________________________________________
Layer (type)                 Output Shape              Param #   
=================================================================
tdVGG16 (TimeDistributed)    (10, 1, 7, 7, 512)        14714688  
_________________________________________________________________
time_distributed_1 (TimeDist (10, 1, 25088)            0         
_________________________________________________________________
time_distributed_2 (TimeDist (10, 1, 25088)            0         
_________________________________________________________________
lstm_1 (LSTM)                (10, 320)                 32523520  
_________________________________________________________________
dense_1 (Dense)              (10, 3)                   963       
=================================================================
Total params: 47,239,171
Trainable params: 32,524,483
Non-trainable params: 14,714,688
_________________________________________________________________

The subjects are trained: [(9, 'M03')]
Evaluating model Exp2019-01-22_21-11-39_and_2019-01-22_21-57-04
The subjects will be tested: [(9, 'M03')]
For the Subject 9 (M03):
Exp2019-01-22_21-11-39.h5 has been saved.
_________________________________________________________________
Layer (type)                 Output Shape              Param #   
=================================================================
tdVGG16 (TimeDistributed)    (10, 1, 7, 7, 512)        14714688  
_________________________________________________________________
time_distributed_1 (TimeDist (10, 1, 25088)            0         
_________________________________________________________________
time_distributed_2 (TimeDist (10, 1, 25088)            0         
_________________________________________________________________
lstm_1 (LSTM)                (10, 320)                 32523520  
_________________________________________________________________
dense_1 (Dense)              (10, 3)                   963       
=================================================================
Total params: 47,239,171
Trainable params: 32,524,483
Non-trainable params: 14,714,688
_________________________________________________________________

The subjects are trained: [(9, 'M03')]
Evaluating model Exp2019-01-22_21-11-39_and_2019-01-22_22-09-39
The subjects will be tested: [(9, 'M03')]
For the Subject 9 (M03):
Exp2019-01-22_21-11-39.h5 has been saved.
_________________________________________________________________
Layer (type)                 Output Shape              Param #   
=================================================================
tdVGG16 (TimeDistributed)    (10, 1, 7, 7, 512)        14714688  
_________________________________________________________________
time_distributed_1 (TimeDist (10, 1, 25088)            0         
_________________________________________________________________
time_distributed_2 (TimeDist (10, 1, 25088)            0         
_________________________________________________________________
lstm_1 (LSTM)                (10, 320)                 32523520  
_________________________________________________________________
dense_1 (Dense)              (10, 3)                   963       
=================================================================
Total params: 47,239,171
Trainable params: 32,524,483
Non-trainable params: 14,714,688
_________________________________________________________________

The subjects are trained: [(9, 'M03')]
Evaluating model Exp2019-01-22_21-11-39_and_2019-01-22_22-11-54
The subjects will be tested: [(9, 'M03')]
For the Subject 9 (M03):
Exp2019-01-22_21-11-39.h5 has been saved.
_________________________________________________________________
Layer (type)                 Output Shape              Param #   
=================================================================
tdVGG16 (TimeDistributed)    (10, 1, 7, 7, 512)        14714688  
_________________________________________________________________
time_distributed_1 (TimeDist (10, 1, 25088)            0         
_________________________________________________________________
time_distributed_2 (TimeDist (10, 1, 25088)            0         
_________________________________________________________________
lstm_1 (LSTM)                (10, 320)                 32523520  
_________________________________________________________________
dense_1 (Dense)              (10, 3)                   963       
=================================================================
Total params: 47,239,171
Trainable params: 32,524,483
Non-trainable params: 14,714,688
_________________________________________________________________

The subjects are trained: [(9, 'M03')]
Evaluating model Exp2019-01-22_21-11-39_and_2019-01-22_22-15-08
The subjects will be tested: [(9, 'M03')]
For the Subject 9 (M03):
Exp2019-01-22_21-11-39.h5 has been saved.
_________________________________________________________________
Layer (type)                 Output Shape              Param #   
=================================================================
tdVGG16 (TimeDistributed)    (10, 1, 7, 7, 512)        14714688  
_________________________________________________________________
time_distributed_1 (TimeDist (10, 1, 25088)            0         
_________________________________________________________________
time_distributed_2 (TimeDist (10, 1, 25088)            0         
_________________________________________________________________
lstm_1 (LSTM)                (10, 320)                 32523520  
_________________________________________________________________
dense_1 (Dense)              (10, 3)                   963       
=================================================================
Total params: 47,239,171
Trainable params: 32,524,483
Non-trainable params: 14,714,688
_________________________________________________________________

The subjects are trained: [(9, 'M03')]
Evaluating model Exp2019-01-22_21-11-39_and_2019-01-22_22-18-18
The subjects will be tested: [(9, 'M03')]
For the Subject 9 (M03):
Exp2019-01-22_21-11-39.h5 has been saved.
_________________________________________________________________
Layer (type)                 Output Shape              Param #   
=================================================================
tdVGG16 (TimeDistributed)    (10, 1, 7, 7, 512)        14714688  
_________________________________________________________________
time_distributed_1 (TimeDist (10, 1, 25088)            0         
_________________________________________________________________
time_distributed_2 (TimeDist (10, 1, 25088)            0         
_________________________________________________________________
lstm_1 (LSTM)                (10, 320)                 32523520  
_________________________________________________________________
dense_1 (Dense)              (10, 3)                   963       
=================================================================
Total params: 47,239,171
Trainable params: 32,524,483
Non-trainable params: 14,714,688
_________________________________________________________________

The subjects are trained: [(9, 'M03')]
Evaluating model Exp2019-01-22_21-11-39_and_2019-01-22_22-19-10
The subjects will be tested: [(9, 'M03')]
For the Subject 9 (M03):
Exp2019-01-22_21-11-39.h5 has been saved.
_________________________________________________________________
Layer (type)                 Output Shape              Param #   
=================================================================
tdVGG16 (TimeDistributed)    (10, 1, 7, 7, 512)        14714688  
_________________________________________________________________
time_distributed_1 (TimeDist (10, 1, 25088)            0         
_________________________________________________________________
time_distributed_2 (TimeDist (10, 1, 25088)            0         
_________________________________________________________________
lstm_1 (LSTM)                (10, 320)                 32523520  
_________________________________________________________________
dense_1 (Dense)              (10, 3)                   963       
=================================================================
Total params: 47,239,171
Trainable params: 32,524,483
Non-trainable params: 14,714,688
_________________________________________________________________

The subjects are trained: [(9, 'M03')]
Evaluating model Exp2019-01-22_21-11-39_and_2019-01-22_22-22-23
The subjects will be tested: [(9, 'M03')]
For the Subject 9 (M03):
Exp2019-01-22_21-11-39.h5 has been saved.
_________________________________________________________________
Layer (type)                 Output Shape              Param #   
=================================================================
tdVGG16 (TimeDistributed)    (10, 1, 7, 7, 512)        14714688  
_________________________________________________________________
time_distributed_1 (TimeDist (10, 1, 25088)            0         
_________________________________________________________________
time_distributed_2 (TimeDist (10, 1, 25088)            0         
_________________________________________________________________
lstm_1 (LSTM)                (10, 320)                 32523520  
_________________________________________________________________
dense_1 (Dense)              (10, 3)                   963       
=================================================================
Total params: 47,239,171
Trainable params: 32,524,483
Non-trainable params: 14,714,688
_________________________________________________________________

The subjects are trained: [(9, 'M03')]
Evaluating model Exp2019-01-22_21-11-39_and_2019-01-22_22-23-29
The subjects will be tested: [(9, 'M03')]
For the Subject 9 (M03):
Exp2019-01-22_21-11-39.h5 has been saved.
_________________________________________________________________
Layer (type)                 Output Shape              Param #   
=================================================================
tdVGG16 (TimeDistributed)    (10, 1, 7, 7, 512)        14714688  
_________________________________________________________________
time_distributed_1 (TimeDist (10, 1, 25088)            0         
_________________________________________________________________
time_distributed_2 (TimeDist (10, 1, 25088)            0         
_________________________________________________________________
lstm_1 (LSTM)                (10, 320)                 32523520  
_________________________________________________________________
dense_1 (Dense)              (10, 3)                   963       
=================================================================
Total params: 47,239,171
Trainable params: 32,524,483
Non-trainable params: 14,714,688
_________________________________________________________________

The subjects are trained: [(9, 'M03')]
Evaluating model Exp2019-01-22_21-11-39_and_2019-01-22_22-25-17
The subjects will be tested: [(9, 'M03')]
For the Subject 9 (M03):
Exp2019-01-22_21-11-39.h5 has been saved.
_________________________________________________________________
Layer (type)                 Output Shape              Param #   
=================================================================
tdVGG16 (TimeDistributed)    (10, 1, 7, 7, 512)        14714688  
_________________________________________________________________
time_distributed_1 (TimeDist (10, 1, 25088)            0         
_________________________________________________________________
time_distributed_2 (TimeDist (10, 1, 25088)            0         
_________________________________________________________________
lstm_1 (LSTM)                (10, 320)                 32523520  
_________________________________________________________________
dense_1 (Dense)              (10, 3)                   963       
=================================================================
Total params: 47,239,171
Trainable params: 32,524,483
Non-trainable params: 14,714,688
_________________________________________________________________

The subjects are trained: [(9, 'M03')]
Evaluating model Exp2019-01-22_21-11-39_and_2019-01-22_22-26-07
The subjects will be tested: [(9, 'M03')]
For the Subject 9 (M03):
Exp2019-01-22_21-11-39.h5 has been saved.
_________________________________________________________________
Layer (type)                 Output Shape              Param #   
=================================================================
tdVGG16 (TimeDistributed)    (10, 1, 7, 7, 512)        14714688  
_________________________________________________________________
time_distributed_1 (TimeDist (10, 1, 25088)            0         
_________________________________________________________________
time_distributed_2 (TimeDist (10, 1, 25088)            0         
_________________________________________________________________
lstm_1 (LSTM)                (10, 320)                 32523520  
_________________________________________________________________
dense_1 (Dense)              (10, 3)                   963       
=================================================================
Total params: 47,239,171
Trainable params: 32,524,483
Non-trainable params: 14,714,688
_________________________________________________________________

The subjects are trained: [(9, 'M03')]
Evaluating model Exp2019-01-22_21-11-39_and_2019-01-22_22-28-21
The subjects will be tested: [(9, 'M03')]
For the Subject 9 (M03):
Exp2019-01-22_21-11-39.h5 has been saved.
_________________________________________________________________
Layer (type)                 Output Shape              Param #   
=================================================================
tdVGG16 (TimeDistributed)    (10, 1, 7, 7, 512)        14714688  
_________________________________________________________________
time_distributed_1 (TimeDist (10, 1, 25088)            0         
_________________________________________________________________
time_distributed_2 (TimeDist (10, 1, 25088)            0         
_________________________________________________________________
lstm_1 (LSTM)                (10, 320)                 32523520  
_________________________________________________________________
dense_1 (Dense)              (10, 3)                   963       
=================================================================
Total params: 47,239,171
Trainable params: 32,524,483
Non-trainable params: 14,714,688
_________________________________________________________________

The subjects are trained: [(9, 'M03')]
Evaluating model Exp2019-01-22_21-11-39_and_2019-01-22_22-28-58
The subjects will be tested: [(9, 'M03')]
For the Subject 9 (M03):
Exp2019-01-22_21-11-39.h5 has been saved.
_________________________________________________________________
Layer (type)                 Output Shape              Param #   
=================================================================
tdVGG16 (TimeDistributed)    (10, 1, 7, 7, 512)        14714688  
_________________________________________________________________
time_distributed_1 (TimeDist (10, 1, 25088)            0         
_________________________________________________________________
time_distributed_2 (TimeDist (10, 1, 25088)            0         
_________________________________________________________________
lstm_1 (LSTM)                (10, 320)                 32523520  
_________________________________________________________________
dense_1 (Dense)              (10, 3)                   963       
=================================================================
Total params: 47,239,171
Trainable params: 32,524,483
Non-trainable params: 14,714,688
_________________________________________________________________

The subjects are trained: [(9, 'M03')]
Evaluating model Exp2019-01-22_21-11-39_and_2019-01-22_22-30-05
The subjects will be tested: [(9, 'M03')]
For the Subject 9 (M03):
Exp2019-01-22_21-11-39.h5 has been saved.
_________________________________________________________________
Layer (type)                 Output Shape              Param #   
=================================================================
tdVGG16 (TimeDistributed)    (10, 1, 7, 7, 512)        14714688  
_________________________________________________________________
time_distributed_1 (TimeDist (10, 1, 25088)            0         
_________________________________________________________________
time_distributed_2 (TimeDist (10, 1, 25088)            0         
_________________________________________________________________
lstm_1 (LSTM)                (10, 320)                 32523520  
_________________________________________________________________
dense_1 (Dense)              (10, 3)                   963       
=================================================================
Total params: 47,239,171
Trainable params: 32,524,483
Non-trainable params: 14,714,688
_________________________________________________________________

The subjects are trained: [(9, 'M03')]
Evaluating model Exp2019-01-22_21-11-39_and_2019-01-22_22-31-58
The subjects will be tested: [(9, 'M03')]
For the Subject 9 (M03):
Exp2019-01-22_21-11-39.h5 has been saved.
_________________________________________________________________
Layer (type)                 Output Shape              Param #   
=================================================================
tdVGG16 (TimeDistributed)    (10, 1, 7, 7, 512)        14714688  
_________________________________________________________________
time_distributed_1 (TimeDist (10, 1, 25088)            0         
_________________________________________________________________
time_distributed_2 (TimeDist (10, 1, 25088)            0         
_________________________________________________________________
lstm_1 (LSTM)                (10, 320)                 32523520  
_________________________________________________________________
dense_1 (Dense)              (10, 3)                   963       
=================================================================
Total params: 47,239,171
Trainable params: 32,524,483
Non-trainable params: 14,714,688
_________________________________________________________________

The subjects are trained: [(9, 'M03')]
Evaluating model Exp2019-01-22_21-11-39_and_2019-01-22_22-32-44
The subjects will be tested: [(9, 'M03')]
For the Subject 9 (M03):
	The absolute mean error on Pitch angle estimation: 5.15 Degree
…
