Exp2019-01-25_20-48-22.h5 has been saved.
_________________________________________________________________
Layer (type)                 Output Shape              Param #   
=================================================================
tdCNN (TimeDistributed)      (1, 1, 4096)              134260544 
_________________________________________________________________
dropout025_conv (TimeDistrib (1, 1, 4096)              0         
_________________________________________________________________
fc1024 (TimeDistributed)     (1, 1, 1024)              4195328   
_________________________________________________________________
dropout025 (TimeDistributed) (1, 1, 1024)              0         
_________________________________________________________________
fc3 (TimeDistributed)        (1, 1, 3)                 3075      
_________________________________________________________________
lstm_1 (LSTM)                (1, 20)                   1920      
_________________________________________________________________
dense_3 (Dense)              (1, 3)                    63        
=================================================================
Total params: 138,460,930
Trainable params: 4,200,386
Non-trainable params: 134,260,544
_________________________________________________________________

######## CONF_Begins_Here ##########
confFile = 'Stateful_CNN_LSTM_Configuration.py'
RECORD = True # False # 

output_begin = 3
num_outputs = 3

timesteps = 1 # TimeseriesGenerator Handles overlapping
…
