Model Exp2019-01-28_22-10-10 has been started to be evaluated.
_________________________________________________________________
Layer (type)                 Output Shape              Param #   
=================================================================
input_1 (InputLayer)         (None, 224, 224, 3)       0         
_________________________________________________________________
block1_conv1 (Conv2D)        (None, 224, 224, 64)      1792      
_________________________________________________________________
block1_conv2 (Conv2D)        (None, 224, 224, 64)      36928     
_________________________________________________________________
block1_pool (MaxPooling2D)   (None, 112, 112, 64)      0         
_________________________________________________________________
block2_conv1 (Conv2D)        (None, 112, 112, 128)     73856     
_________________________________________________________________
block2_conv2 (Conv2D)        (None, 112, 112, 128)     147584    
_________________________________________________________________
block2_pool (MaxPooling2D)   (None, 56, 56, 128)       0         
_________________________________________________________________
block3_conv1 (Conv2D)        (None, 56, 56, 256)       295168    
_________________________________________________________________
block3_conv2 (Conv2D)        (None, 56, 56, 256)       590080    
_________________________________________________________________
block3_conv3 (Conv2D)        (None, 56, 56, 256)       590080    
_________________________________________________________________
block3_pool (MaxPooling2D)   (None, 28, 28, 256)       0         
_________________________________________________________________
block4_conv1 (Conv2D)        (None, 28, 28, 512)       1180160   
_________________________________________________________________
block4_conv2 (Conv2D)        (None, 28, 28, 512)       2359808   
_________________________________________________________________
block4_conv3 (Conv2D)        (None, 28, 28, 512)       2359808   
_________________________________________________________________
block4_pool (MaxPooling2D)   (None, 14, 14, 512)       0         
_________________________________________________________________
block5_conv1 (Conv2D)        (None, 14, 14, 512)       2359808   
_________________________________________________________________
block5_conv2 (Conv2D)        (None, 14, 14, 512)       2359808   
_________________________________________________________________
block5_conv3 (Conv2D)        (None, 14, 14, 512)       2359808   
_________________________________________________________________
block5_pool (MaxPooling2D)   (None, 7, 7, 512)         0         
=================================================================
Total params: 14,714,688
Trainable params: 0
Non-trainable params: 14,714,688
_________________________________________________________________

_________________________________________________________________
Layer (type)                 Output Shape              Param #   
=================================================================
tdCNN (TimeDistributed)      (1, 1, 7, 7, 512)         14714688  
_________________________________________________________________
time_distributed_1 (TimeDist (1, 1, 25088)             0         
_________________________________________________________________
dropout025_conv (TimeDistrib (1, 1, 25088)             0         
_________________________________________________________________
fc1024 (TimeDistributed)     (1, 1, 1024)              25691136  
_________________________________________________________________
dropout025 (TimeDistributed) (1, 1, 1024)              0         
_________________________________________________________________
fc3 (TimeDistributed)        (1, 1, 3)                 3075      
_________________________________________________________________
lstm_1 (LSTM)                (1, 64)                   17408     
_________________________________________________________________
dense_3 (Dense)              (1, 3)                    195       
=================================================================
Total params: 40,426,502
Trainable params: 25,711,814
Non-trainable params: 14,714,688
_________________________________________________________________

######## CONF_Begins_Here ##########
confFile = 'Stateful_FC_RNN_Configuration.py'
RECORD = True # False # 

output_begin = 3
num_outputs = 3

timesteps = 1 # TimeseriesGenerator Handles overlapping
…
1. set (Dataset 9) being trained for epoch 1 in Experiment 1 by 2019-01-28 22:10:31.531014!
Epoch 1 for Experiment 1 completed!
The subjects are trained: [(9, 'M03')]
Evaluating model VGG16_seqLen1_stateful_lstm64_output3_BatchSize1_inEpochs1_outEpochs1_AdamOpt_lr-0.000100_2019-01-28_22-10-10
The subjects will be tested: [(9, 'M03')]
For the Subject 9 (M03):
Exp2019-01-28_21-14-48_part1.h5 has been saved.
_________________________________________________________________
Layer (type)                 Output Shape              Param #   
=================================================================
tdCNN (TimeDistributed)      (1, 1, 7, 7, 512)         14714688  
_________________________________________________________________
time_distributed_1 (TimeDist (1, 1, 25088)             0         
_________________________________________________________________
dropout025_conv (TimeDistrib (1, 1, 25088)             0         
_________________________________________________________________
fc1024 (TimeDistributed)     (1, 1, 1024)              25691136  
_________________________________________________________________
dropout025 (TimeDistributed) (1, 1, 1024)              0         
_________________________________________________________________
fc3 (TimeDistributed)        (1, 1, 3)                 3075      
_________________________________________________________________
lstm_1 (LSTM)                (1, 64)                   17408     
_________________________________________________________________
dense_3 (Dense)              (1, 3)                    195       
=================================================================
Total params: 40,426,502
Trainable params: 25,711,814
Non-trainable params: 14,714,688
_________________________________________________________________

######## CONF_Begins_Here ##########
confFile = 'Stateful_FC_RNN_Configuration.py'
RECORD = True # False # 

output_begin = 3
num_outputs = 3

timesteps = 1 # TimeseriesGenerator Handles overlapping
…
