…
2019-01-23 03:41:31.997074: I tensorflow/core/common_runtime/gpu/gpu_device.cc:930] 0:   N
2019-01-23 03:41:31.997245: I tensorflow/core/common_runtime/gpu/gpu_device.cc:1041] Created TensorFlow device (/job:loc
alhost/replica:0/task:0/device:GPU:0 with 9524 MB memory) -> physical GPU (device: 0, name: GeForce GTX TITAN X, pci bus
 id: 0000:01:00.0, compute capability: 5.2)
Model Exp2019-01-23_03-41-32 has been started to be evaluated.
_________________________________________________________________
Layer (type)                 Output Shape              Param #
=================================================================
input_1 (InputLayer)         (None, 224, 224, 3)       0
_________________________________________________________________
block1_conv1 (Conv2D)        (None, 224, 224, 64)      1792
_________________________________________________________________
block1_conv2 (Conv2D)        (None, 224, 224, 64)      36928
_________________________________________________________________
block1_pool (MaxPooling2D)   (None, 112, 112, 64)      0
_________________________________________________________________
block2_conv1 (Conv2D)        (None, 112, 112, 128)     73856
_________________________________________________________________
block2_conv2 (Conv2D)        (None, 112, 112, 128)     147584
_________________________________________________________________
block2_pool (MaxPooling2D)   (None, 56, 56, 128)       0
_________________________________________________________________
block3_conv1 (Conv2D)        (None, 56, 56, 256)       295168
_________________________________________________________________
block3_conv2 (Conv2D)        (None, 56, 56, 256)       590080
_________________________________________________________________
block3_conv3 (Conv2D)        (None, 56, 56, 256)       590080
_________________________________________________________________
block3_pool (MaxPooling2D)   (None, 28, 28, 256)       0
_________________________________________________________________
block4_conv1 (Conv2D)        (None, 28, 28, 512)       1180160
_________________________________________________________________
block4_conv2 (Conv2D)        (None, 28, 28, 512)       2359808
_________________________________________________________________
block4_conv3 (Conv2D)        (None, 28, 28, 512)       2359808
_________________________________________________________________
block4_pool (MaxPooling2D)   (None, 14, 14, 512)       0
_________________________________________________________________
block5_conv1 (Conv2D)        (None, 14, 14, 512)       2359808
_________________________________________________________________
block5_conv2 (Conv2D)        (None, 14, 14, 512)       2359808
_________________________________________________________________
block5_conv3 (Conv2D)        (None, 14, 14, 512)       2359808
_________________________________________________________________
block5_pool (MaxPooling2D)   (None, 7, 7, 512)         0
_________________________________________________________________
flatten (Flatten)            (None, 25088)             0
_________________________________________________________________
fc1 (Dense)                  (None, 4096)              102764544
_________________________________________________________________
fc2 (Dense)                  (None, 4096)              16781312
=================================================================
Total params: 134,260,544
Trainable params: 0
Non-trainable params: 134,260,544
_________________________________________________________________

_________________________________________________________________
Layer (type)                 Output Shape              Param #
=================================================================
tdVGG16 (TimeDistributed)    (1, 1, 4096)              134260544
_________________________________________________________________
time_distributed_1 (TimeDist (1, 1, 4096)              0
_________________________________________________________________
lstm_1 (LSTM)                (1, 320)                  5653760
_________________________________________________________________
dense_1 (Dense)              (1, 3)                    963
=================================================================
Total params: 139,915,267
Trainable params: 5,654,723
Non-trainable params: 134,260,544
_________________________________________________________________

Training model VGG16_inc_top_seqLen1_stateful_lstm320_output3_BatchSize1_inEpochs1_outEpochs40_AdamOpt_lr-0.000100_2019-
01-23_03-41-32
All frames and annotations from 20 datasets have been read by 2019-01-23 03:41:38.113276
…
